monitor_system/comfitness_level/model/comfitness_model.pth (torch, 3224 bytes, 4 tensors)

layer1.weight f4 [16, 2]
00000000: 80c4 be3c c05e b53d 8790 84bf 5280 28c0
00000010: 25c9 b5bf de00 1f3f 1b53 c7bf 245c b840
00000020: 853b 7640 3c9c 963e b4df bebf 62cd cebe
00000030: c7d8 b940 0dc2 26c0 0072 2240 bbdf 6cc0
00000040: 991c 0b41 da39 cdbe 4a66 5f40 86a8 8140
00000050: f575 1040 a3e9 7540 6b10 a9c0 420d 423f
00000060: 940f a3be f8e2 863f 9d3d d3bf b34c b640
00000070: 103d 16c0 aaad 01c0 fb59 2440 7f86 2740
0.023287058 0.08855963 -1.0356606 -2.632832 -1.420201 0.621107 -1.5572237 5.7612476
3.8473828 0.29416072 -1.4912019 -0.4039107 5.807712 -2.605594 2.538208 -3.7011554
8.694482 -0.400832 3.4906182 4.0518217 2.2571995 3.842385 -5.283254 0.7580148
-0.31847823 1.0538015 -1.6503178 5.6968627 -2.347477 -2.0262246 2.567992 2.617584

layer1.bias f4 [16]
00000000: 3636 bcbe 2867 db3f 6f84 4440 f9e0 bb3f
00000010: d906 0440 d3f5 3940 a81d 8bc0 8b1a 5f40
00000020: fac0 63c0 c52e 3dc0 506a f6bf 11e3 6a40
00000030: fe81 8d40 d556 2b3c b0f5 b83f cdb9 6d3f
-0.3676011 1.7140856 3.070583 1.4678031 2.062918 2.905629 -4.34737 3.485995
-3.5586534 -2.9559796 -1.9251194 3.670109 4.422118 0.010457714 1.4449978 0.92861634

layer2.weight f4 [13, 16]
00000000: f036 073d fd00 163e ed86 8abe d504 a8be
00000010: 155f 7fbe 17aa aa3d a626 48be 3dfa fbbd
00000020: 85a9 34be de48 263e 7e8e d7bb ecb2 37be
00000030: bb4c b23d b36b e7bd 3209 76bd f049 1d3d
00000040: 0028 32bc f243 b0c0 9732 4abf 6357 51c0
00000050: 8b7a 513f a8f3 67bf 3a7a 94bf 2c9e 8cbf
00000060: 4c7d 3b40 2432 c63e 63d5 ea3e ca23 34c1
00000070: d789 e6bd 1615 4140 de0f 41be fd97 503f
00000080: d87f b7bd a290 df3f a1ca 55bf abc7 9dc0
00000090: f883 0240 c493 9dbf d91c 1ac0 16c1 6ac0
000000a0: d573 9140 6478 28c0 7fe1 5ec0 0e2e 84c0
000000b0: f4de 5b3d edb7 f840 6612 23c0 13d7 de3f
000000c0: baaa 5bbe 6836 9ebf 2abf eebf 9473 10bf
000000d0: a496 90bf 2bda 31c0 4c1a 2c40 657c 60c0
000000e0: 5f54 9540 8b03 b040 bc53 2740 827d e0bf
000000f0: 3063 a8bf 928c 7ac0 8c8e 25bf 2c43 a03e
00000100: a03e c13d f7da 383f 0889 ad3e 6ae1 9340
00000110: 9482 9bbf cdab 393e ca78 b5c0 cac4 8940
00000120: b4eb 03c1 584d 36bf 1ce6 4c3f 951f 95c0
00000130: db92 c93e 8016 75c0 4d11 78c0 79cd a73f
00000140: 2083 f33c a04f edbf 4ea0 433f a837 483f
00000150: 9a6f 56c0 ff89 4f3f 2409 a0be cd9e fbbf
00000160: 4eda 95be c413 40bf 059b 03c0 01b2 d33f
00000170: 7856 a4be 0415 b73f 3f7f a63e d0ad 3dc0
00000180: 2ea0 4abe e53a 80be 5e25 94be 94bb 97be
00000190: fa7d 37be 8997 043e 5c6e 4abe 2a9d 5d3e
000001a0: 4049 5c3c 50a2 4bbe ce25 38be 14d9 34bb
000001b0: acae f1bd 5d6b cc3d 9339 bebc 7249 47be
000001c0: 3896 673e bd09 f7bc 35a2 e5bd 01d3 d4be
000001d0: c340 95ba 1bf3 53be fcbe 123c 7b8e 8dbe
000001e0: 7c24 23be b4a6 cebe 2a2c 89be 1d15 94be
000001f0: 190f 093d 1019 26bd 6244 36be 02f5 91ba
00000200: e253 393e f2fb 95be 330c 343e 1830 39be
00000210: eee4 2a3e 8645 46be 9481 113c 6c18 13be
00000220: 89e4 e73d f3dc 863c 9d72 b93c 0a8f 353d
00000230: 0e1c 4abe 3c31 5cbe a046 c23d c154 0fbe
00000240: fcd4 a0bd 3fb5 89c0 52da 9fc0 e3b6 dabe
00000250: a1ee 343f f0c9 69c0 38d2 cc40 e0a7 4ec0
00000260: a738 8e40 4583 94c0 83b9 3fc0 2422 17be
00000270: d3eb bac0 91ee 81be 1a87 a3c0 10ce f33f
00000280: 78a4 2d3e 59f6 953d 6d6e e6bf c3e9 3dbd
00000290: eccf c3bf d375 70bf aa55 7840 f67e 2fbe
000002a0: 48ec da3f d557 a6be afbd f8be 1ebf 5ebe
000002b0: 8140 1fc0 64c9 bfbd 97dc b4bf 8897 03c0
000002c0: 7c22 e8bd 5e0d 6c3f ccfa 8abf 130b 7cc0
000002d0: ba81 47c0 58c2 633f 6e57 a3bf 8940 f63e
000002e0: 75e8 f0bf 5573 b8be d888 54be 871d 1d40
000002f0: b062 d1bf 9357 aac0 aea3 703f bd87 92bf
00000300: c81b d53d 51a4 bdbd 8a92 96be 244d fabd
00000310: fcf4 f3bc 6285 9abe 6957 ee3d 98c0 8abe
00000320: c191 11be 00b8 583e 28ec ec3d 35db 8abe
00000330: 0f9b 48be 9edf 79be 277e 21bd dfbf 82bd
0.033011377 0.14648814 -0.27056065 -0.32816187 -0.24938615 0.08333223 -0.19545993 -0.123035885
-0.17642792 0.16238734 -0.0065782657 -0.17939347 0.087060414 -0.11299839 -0.060067363 0.03840059
-0.010873795 -5.508294 -0.78983444 -3.2709587 0.8182761 -0.90606165 -1.15998 -1.098577
2.9295225 0.3871013 0.45865926 -11.258738 -0.112567596 3.016912 -0.18853709 0.81481916
-0.08959931 1.7466013 -0.8351231 -4.9306235 2.0393047 -1.231072 -2.4080107 -3.668035
4.5453897 -2.632348 -3.4825132 -4.130622 0.05367942 7.772452 -2.547998 1.7409385
-0.21451846 -1.2360353 -1.8652089 -0.5642636 -1.1295972 -2.778941 2.689105 -3.5075924
4.666549 5.5004325 2.6144857 -1.7538302 -1.315527 -3.9148297 -0.64670634 0.31301248
0.09435773 0.72209114 0.3389361 4.6212664 -1.2149224 0.18131943 -5.6709948 4.305272
-8.245045 -0.7121177 0.8003862 -4.660105 0.39369854 -3.8294983 -3.876056 1.310958
0.029725611 -1.8539925 0.7641648 0.78209925 -3.3505616 0.8106994 -0.31256974 -1.9657837
-0.29268116 -0.7503016 -2.0563366 1.6538697 -0.3209722 1.4303288 0.32518956 -2.9637337
-0.19787666 -0.25044933 -0.2893476 -0.29635298 -0.1791915 0.12948431 -0.19768661 0.21641985
0.013445199 -0.19886136 -0.17983171 -0.002759521 -0.11800894 0.099814154 -0.023220813 -0.19461611
0.22615898 -0.03015601 -0.11212579 -0.41567233 -0.0011387098 -0.20698206 0.008956667 -0.27647766
-0.15931886 -0.4036156 -0.26791507 -0.28922358 0.033461664 -0.040551245 -0.17799523 -0.001113564
0.18098405 -0.29293782 0.17582779 -0.18084753 0.16688892 -0.19362459 0.0088809915 -0.14364785
0.113228865 0.016462779 0.02263766 0.044325866 -0.19737265 -0.21503156 0.09486127 -0.13997175
-0.078531235 -4.303375 -4.9954004 -0.42717656 0.7067662 -3.6529503 6.4006615 -3.2289963
4.4444156 -4.641024 -2.9956977 -0.14759117 -5.841287 -0.25377324 -5.110242 1.904726
0.16957271 0.07322378 -1.8002449 -0.04636551 -1.5297828 -0.93929785 3.8802285 -0.17138276
1.7103357 -0.32488886 -0.48582217 -0.21752593 -2.488312 -0.09364584 -1.4129819 -2.0561237
-0.113347024 0.92207897 -1.0857787 -3.938176 -3.117293 0.8896842 -1.2761056 0.4809611
-1.882094 -0.3602549 -0.20755327 2.4549272 -1.6358242 -5.32319 0.93999755 -1.1447674
0.104056895 -0.092598565 -0.29408675 -0.12221745 -0.029779904 -0.30179888 0.11637766 -0.27100062
-0.14215757 0.2116394 0.11568481 -0.27120367 -0.195904 -0.2440171 -0.03942695 -0.06384253

layer2.bias f4 [13]
00000000: bde1 83be 9e29 72be 9e6d d3be f5a2 02c0
00000010: ca31 713e 5bd2 793e c5e4 86be 18c1 d2bc
00000020: 3e0e b2bd eeb3 e1bf 116d 21bf 652f 193f
00000030: 0a09 45bc
-0.25758162 -0.23648688 -0.4129457 -2.041196 0.2355415 0.2439665 -0.26346412 -0.02572684
-0.08694123 -1.7633035 -0.6305705 0.59837943 -0.012026081
