monitor_system/comfitness_level/model/comfitness_model.pth (torch, 3224 bytes, 4 tensors)

layer1.weight f4 [16, 2]
00000000: 731a 68c0 cdf7 b23e a85a 883e 9f30 90bc
00000010: d843 57c0 204c 5b3d d4c6 3bbf 280c 9340
00000020: 78dc 48bf 3ef6 d1c0 6a7c 97c0 dfd4 71bf
00000030: 1d42 34c0 485d 44bf 9e37 1ac0 cf38 b1c0
00000040: 6c80 21c0 aa0c c4be a67d 71c0 d07a 133e
00000050: 7e02 0ebe 14a4 88be 6dee 833e 5770 cf3d
00000060: 3a76 46c0 7b6f 4ec0 13c2 28c0 f694 e8be
00000070: 0646 c140 4303 893f 1cfb bcc0 3228 d53d
-3.6266143 0.34954682 0.26631665 -0.01760131 -3.3635159 0.053539395 -0.7335026 4.595234
-0.7846141 -6.561309 -4.7339373 -0.9446544 -2.8165352 -0.76704836 -2.4096446 -5.5381846
-2.5234632 -0.38290912 -3.773294 0.14402318 -0.13868138 -0.26687682 0.25767842 0.10128849
-3.100966 -3.2255542 -2.6368454 -0.45426148 6.039798 1.070412 -5.905653 0.10408057

layer1.bias f4 [16]
00000000: e6bf 5540 94f2 11bf 06f8 4d40 09ab 063f
00000010: 92cd 95be 8cfa aa3f 7cd4 5940 0b48 f4bf
00000020: 0232 5e40 4dd5 b33f e86a 23bf 037c 5abf
00000030: 4f5b b63f 5775 6940 915a 4540 a22e 2440
3.3398376 -0.5701077 3.2182631 0.5260473 -0.292584 1.3357711 3.403594 -1.9084486
3.4718022 1.4049469 -0.63835 -0.85345477 1.4246615 3.6477869 3.0836527 2.5653462

layer2.weight f4 [13, 16]
00000000: c177 b1bc 9a14 ac3d 5235 933b c977 4e3d
00000010: 058a 23be f348 99be 4722 dfbd 7d32 68be
00000020: 8a09 f8bd ed9f 473b 00af e9bc b770 863d
00000030: 3b09 9abd faba d03d c6b4 b3be 54c4 00be
00000040: 5dc5 94be 1816 81bd 10e8 91be 0e51 e53c
00000050: de2d 24be f5b0 aa3d 9761 8fbe 38b0 47be
00000060: 74d0 5cbd 10c7 51bc 3f26 34be 2e36 c4bc
00000070: 27ce bcbe 5acc 0cbe d7c2 0abd 5638 b93c
00000080: 6368 ebc0 09fe b8be 9205 a4c0 b1b8 a6c0
00000090: aa18 5ec0 0203 1dbf ca1a fa3f f126 c4bf
000000a0: d147 3d40 499a f2bf 005a 603e a4ef f23c
000000b0: 6646 e7c0 9b40 3a40 e70a 04be 37ce 7abf
000000c0: b437 a5bd ba10 323e 9017 bfbd 901a 0c3d
000000d0: a0c0 3ebc 000c ed3a 761c 56be e082 3ebc
000000e0: 6068 f73d d23f 3cbe d688 4b3e 1044 8abd
000000f0: 58b5 22be 1488 48be 3010 57bd 7a58 613e
00000100: 84f9 a640 855d 62bd 440c 7740 c741 a43e
00000110: 20a2 c6bf ef15 9ac0 1548 1040 7b8a d640
00000120: d8a4 ee3f 5233 a1c0 5f4c 4ebe 088b d93b
00000130: 81b7 51c0 c5b1 0640 9ae6 0ac0 99e6 1fc1
00000140: 5807 843f c0e5 6ebe 481a 013f 8bc0 e13f
00000150: f8b7 d5c0 cb08 e53f b7a8 8c3e 812e 3ec0
00000160: d86c 0c3e 2544 b23f 6a4f 58be a277 793d
00000170: c169 ccbf 0f37 49bf 35ad 38c0 e868 e43f
00000180: 1ca9 d73f efcd 22be 174f 8d3f bc63 293f
00000190: 6e5e bac0 d2b6 b2c0 04e9 8d3f 2070 1cc0
000001a0: 4eed ab3f eb30 483e 10fa c53c 42a0 b03d
000001b0: cc93 b2c0 f7e2 243f 15ca c1bf 3cd3 b53e
000001c0: 15c8 c33c cc6f 653d 4aff cbbc c8e6 44be
000001d0: dc4b 1fbe a55a d8bd cbb0 9bbe 1d84 0b3e
000001e0: 5909 08be 1561 da3d 8595 0bbd c8d1 803d
000001f0: 3922 8fbe a8b2 f13d 5285 09bd e964 c7bd
00000200: c569 58c1 0bc5 c7bb 8a02 8ec0 ace7 0fbd
00000210: 6ade dc3f f0ba c6be 7b67 1840 8f85 c2c0
00000220: f342 1040 9f45 edbe 7813 b83d 0407 da3d
00000230: 620a 7a40 bfb2 0640 ffa7 ecbf cb45 34bf
00000240: d9aa c7bf 8516 f6bc 8034 69bf 5c7d 89bf
00000250: 25c1 3d40 292f 4cbe bab4 16c1 0cc0 afc0
00000260: 417f ccc0 00a1 8ebb 8a89 0c3e 79b7 e2bd
00000270: 1261 87c0 9a7b 8ac0 a93c f63d 1505 8cbe
00000280: c4e1 6f3e f0b0 38be a002 423d d072 fc3c
00000290: 65e0 113e bc9f 503e 22c1 0fbe 3845 ddbd
000002a0: 00de 863c b414 1ebe 00cf 293d 0642 743e
000002b0: 3936 71be 5989 6bbe 986c 41be 80b9 dbbd
000002c0: 8b72 283f 7e14 1c3e 94a2 1b3f 5373 51c0
000002d0: 7090 49be 2c82 cd3e 174f 783e 9db3 cd3e
000002e0: d308 0c3f 8ba2 bebb 3604 2ebe a8e6 ef3d
000002f0: 6fb0 4f3f 0a71 c83e 7951 26c0 60c2 71bf
00000300: 4f36 64be 5205 48be a6b7 8fbd 67fd 04be
00000310: 72bb 6fbe 4e4d e5bd a757 9fbe fe8c 93be
00000320: b07b 48bd ddcd 4d3d 2897 44be 803a 13bd
00000330: f78c abbe 9c64 0d3e 286a e5bd ab6b c03c
-0.021663548 0.08402367 0.0044924403 0.050407205 -0.15970619 -0.29938468 -0.1089521 -0.2267551
-0.121111944 0.0030460313 -0.02852583 0.065644674 -0.07521292 0.10191913 -0.35098857 -0.12574893
-0.29056826 -0.06303042 -0.28497362 0.027992751 -0.16033122 0.08334533 -0.28004143 -0.19500816
-0.053909734 -0.012803808 -0.17592715 -0.023951616 -0.36876032 -0.13749829 -0.03387722 0.02260987
-7.3564925 -0.36131313 -5.12568 -5.2100453 -3.4702554 -0.61332715 1.9539425 -1.5324384
2.9575083 -1.8953334 0.21909332 0.029655285 -7.2273436 2.9101932 -0.12894784 -0.9797091
-0.08067265 0.17389193 -0.09330666 0.03420502 -0.011642605 0.0018085241 -0.20909294 -0.011627883
0.12080455 -0.1838372 0.19876418 -0.06751263 -0.1588949 -0.1958316 -0.052505672 0.22006407
5.2179585 -0.05526497 3.8601236 0.32081434 -1.5518227 -4.8151774 2.2543995 6.7044044
1.8644056 -5.0375147 -0.20146321 0.0066388883 -3.2768252 2.1046002 -2.1703248 -9.993798
1.0314741 -0.2332983 0.50430727 1.7636884 -6.678707 1.7893308 0.2747247 -2.9715884
0.13713396 1.3927046 -0.21124044 0.060905106 -1.5969774 -0.7859964 -2.8855717 1.7844515
1.6848483 -0.1589887 1.1039761 0.6616781 -5.824027 -5.584817 1.1086736 -2.4443436
1.3431795 0.1954991 0.02416709 0.08624317 -5.5805416 0.6440882 -1.5139796 0.35512722
0.023899117 0.05601482 -0.024902005 -0.19228661 -0.15556282 -0.10564164 -0.3040832 0.13624616
-0.13284816 0.10663048 -0.03407814 0.062900126 -0.27955797 0.11801654 -0.03357441 -0.09736044
-13.525823 -0.0060964874 -4.43781 -0.03513305 1.7255375 -0.38814497 2.381316 -6.0788035
2.2540863 -0.4634218 0.08988088 0.106458694 3.9068837 2.1046598 -1.8488768 -0.70418996
-1.5599014 -0.030040035 -0.91095734 -1.0741382 2.9649136 -0.19939865 -9.419123 -5.492193
-6.390534 -0.004352689 0.13724342 -0.11070151 -4.2305994 -4.327588 0.12023289 -0.27347627
0.23425967 -0.18036246 0.047365785 0.030816466 0.14245756 0.20373434 -0.14038518 -0.10804218
0.01646328 -0.15437585 0.041457176 0.23853311 -0.2355584 -0.23001613 -0.18889081 -0.10728741
0.6579978 0.15242192 0.6079495 -3.2726638 -0.19684005 0.40138376 0.2424892 0.40176097
0.54700965 -0.0058177165 -0.16993794 0.11713916 0.8112859 0.39148742 -2.5987227 -0.9443722
-0.22286342 -0.1953328 -0.0701745 -0.1298729 -0.23411348 -0.11196385 -0.3112156 -0.28818506
-0.048946083 0.050245155 -0.19198287 -0.03594446 -0.33505985 0.1380791 -0.11201888 0.02348884

layer2.bias f4 [13]
00000000: 2d78 4cbe a1c0 0dbd dc6b c93f 4073 263d
00000010: 26ac 4a3f c3a0 04bf 572e b6be d731 7fbe
00000020: 024a 953e 7a3e c4bf 3b82 1fbe d304 573e
00000030: 87f5 24be
-0.19967718 -0.034607533 1.5736041 0.040637255 0.7916893 -0.518078 -0.3558223 -0.24921356
0.29158026 -1.5331566 -0.15577023 0.20997934 -0.16109286
