monitor_system/comfitness_level/model/comfitness_model.pth (torch, 3352 bytes, 4 tensors)

layer1.weight f4 [16, 2]
-0.37722385 2.3537297 -3.0835767 -0.036778685 -3.3132482 -0.25575334 -0.15660034 -0.02239422
4.5831075 -0.6067004 -1.9793704 -4.5904393 -6.7868752 0.32333854 -4.224568 -0.0936578
-3.1332493 -4.246844 4.4521728 6.88434 -1.1597564 3.8096616 -2.4574406 3.7375996
-3.6643944 -3.8762703 -0.29564482 -0.09684993 7.0589223 -1.442103 7.016966 0.17661178
00000000: 7c23 c1be 82a3 1640 5259 45c0 3fa5 16bd
00000010: 420c 54c0 1af2 82be d75b 20be 1574 b7bc
00000020: d1a8 9240 b850 1bbf 025c fdbf e1e4 92c0
00000030: 152e d9c0 a18c a53e a92f 87c0 a9cf bfbd
00000040: 2887 48c0 25e6 87c0 3378 8e40 834c dc40
00000050: e672 94bf 7fd1 7340 b546 1dc0 d534 6f40
00000060: 7085 6ac0 d014 78c0 c25e 97be 4259 c6bd
00000070: b1e2 e140 d596 b8bf fc8a e040 b8d9 343e

layer1.bias f4 [16]
3.3696444 4.5545235 1.3964618 -0.44918105 1.8610454 1.5506974 2.3602638 1.8540983
8.2139435 1.6860642 1.1606553 1.1004345 -0.1400894 -0.7258317 -3.3213549 -4.280024
00000000: 41a8 5740 a8be 9140 43bf b23f 0ffb e5be
00000010: bc36 ee3f 417d c63f 900e 1740 1853 ed3f
00000020: 506c 0341 f4d0 d73f 5a90 943f 0adb 8c3f
00000030: 9873 0fbe 1bd0 39bf 1491 54c0 f5f5 88c0

layer2.weight f4 [14, 16]
1.7212559 0.9761638 -1.148377 0.09328557 3.1571975 -1.5029225 -5.3600845 -0.9158681
2.374409 1.5590837 -2.0216796 -1.1743698 -0.78852993 -0.11104315 -2.931495 -5.697855
1.1110067 -1.1004505 -0.5368357 -0.30749622 5.465121 -4.2973804 -1.9475656 -0.58886606
-3.8850875 1.8572896 -5.4316735 0.12828408 -0.74262345 -0.1386497 -2.551237 4.3130045
0.7465008 -0.13252594 -0.90992564 -0.23432532 2.2771032 -2.528932 -3.4970655 -0.6190717
0.8116638 1.8204482 1.3756807 -3.5903587 -0.6882261 -0.010743761 0.5030295 -0.93127686
-0.8521887 -3.2629683 -0.3428495 -0.03512001 1.1410667 -1.6141193 -1.049533 -0.6425793
-6.4621787 3.2799964 -1.2867271 -3.1661077 -0.60935307 -0.32045028 3.9253597 4.9033685
1.2710077 4.330246 -3.6358624 -0.27919987 0.07218477 -0.27937636 -8.523408 -8.751174
4.787028 -0.2610142 2.385911 0.06216769 1.152169 -0.15830947 -7.157446 -6.8163514
1.6223906 1.1202295 1.0832691 0.012392162 -2.5140216 -2.0861669 3.8513718 3.8641016
0.6631531 -4.64586 1.5581638 1.7753773 -2.0713751 -0.20802185 -0.74387324 -0.62922907
1.1580572 1.3641502 0.413094 -0.33601108 0.17104693 2.547001 -0.3126557 -0.09013106
1.9561642 -0.8081236 0.45235816 0.34182802 -10.122413 -0.29912308 -1.0924343 -1.6172217
-2.149406 -0.06603513 -1.3112222 -0.27793914 1.0660547 1.28016 -1.8378246 -1.384003
3.1767743 -1.2540445 -0.43612847 -0.41878185 -0.72781545 -0.3066889 0.06295446 -10.639028
3.610277 -0.5939694 -0.8817554 -0.36231768 0.098079115 3.9576213 -2.7344167 -2.0568066
2.3104208 -4.9733253 -0.599865 -0.44023073 -2.652133 0.007671556 0.5530159 -2.7758563
-2.438014 -1.6728419 -0.5718559 -0.03633172 2.6512558 -1.9577355 -0.51396984 -0.6878407
-1.5301319 -6.618391 -0.4028341 -0.45096308 -2.5521297 -0.2546506 2.6958444 5.3138695
-2.5169885 -1.9724187 -0.4891607 0.025725972 0.367284 5.701872 -0.59981406 -1.1566944
0.20927761 -0.5354727 -0.57712203 -0.17206882 -5.201908 -0.106427774 1.3457093 2.2726219
-2.4503632 -0.5947432 -0.29320562 0.002945138 -0.57212687 -1.2453434 -0.37188858 -0.26385644
-2.7352097 -0.3443947 -0.68432444 -0.6356339 -0.49908695 0.04528168 2.9539046 7.5206614
-1.6894096 0.3646858 1.3902036 0.028978622 -3.6821089 1.4398932 4.8476844 1.0329177
0.8602574 -0.9773397 -2.3613937 -2.843966 3.0728662 0.006776135 -1.4719862 -0.5533157
-0.1635197 1.5620558 0.40714538 0.04879373 0.40576088 0.92605513 -3.1911066 0.88854903
2.9203472 -1.9685607 -2.3429494 -4.9695582 -0.4285422 -0.36821336 -2.3832786 -1.1339928
00000000: 1d52 dc3f dfe5 793f 04fe 92bf 810c bf3d
00000010: 860f 4a40 c45f c0bf d085 abc0 5576 6abf
00000020: 51f6 1740 0e90 c73f 3363 01c0 c051 96bf
00000030: 19dd 49bf 976a e3bd 9d9d 3bc0 d454 b6c0
00000040: 7835 8e3f 90db 8cbf 106e 09bf 2570 9dbe
00000050: 45e2 ae40 2484 89c0 d449 f9bf edbf 16bf
00000060: 46a5 78c0 aabb ed3f 45d0 adc0 e75c 033e
00000070: 921c 3ebf 30fa 0dbe 7847 23c0 2204 8a40
00000080: ad1a 3f3f e1b4 07be e3f0 68bf faf2 6fbe
00000090: 0fbc 1140 06da 21c0 eccf 5fc0 7c7b 1ebf
000000a0: 33c9 4f3f 7204 e93f 4e16 b03f 70c8 65c0
000000b0: 962f 30bf 9a06 30bc 8bc6 003f 2968 6ebf
000000c0: 0a29 5abf 79d4 50c0 f889 afbe 00da 0fbd
000000d0: 790e 923f 769b cebf 1957 86bf 1480 24bf
000000e0: 2bca cec0 76eb 5140 79b3 a4bf 82a1 4ac0
000000f0: 90fe 1bbf 0f12 a4be 1839 7b40 65e8 9c40
00000100: 61b0 a23f 6091 8a40 f8b1 68c0 49f3 8ebe
00000110: 9cd5 933d 6b0a 8fbe e15f 08c1 cf04 0cc1
00000120: 552f 9940 a7a3 85be c4b2 1840 8ca3 7e3d
00000130: 467a 933f e11b 22be cc09 e5c0 8d1f dac0
00000140: 7faa cf3f ae63 8f3f 90a8 8a3f 7f08 4b3c
00000150: bbe5 20c0 c283 05c0 e07c 7640 714d 7740
00000160: 67c4 293f e3aa 94c0 e971 c73f 903f e33f
00000170: 6991 04c0 ae03 55be 7a6e 3ebf 2815 21bf
00000180: 383b 943f 799c ae3f 0f81 d33e a509 acbe
00000190: ed26 2f3e 1002 2340 6814 a0be a296 b8bd
000001a0: 9763 fa3f 30e1 4ebf 7d9b e73e 1504 af3e
000001b0: 67f5 21c1 a926 99be e3d4 8bbf 1f01 cfbf
000001c0: de8f 09c0 6d3d 87bd 21d6 a7bf 0a4e 8ebe
000001d0: 7b74 883f 48dc a33f d63d ebbf 0327 b1bf
000001e0: 4550 4b40 8884 a0bf 3b4c dfbe 936a d6be
000001f0: 1d52 3abf 5406 9dbe 45ee 803d 7539 2ac1
00000200: c70e 6740 610e 18bf b9ba 61bf b481 b9be
00000210: b4dd c83d ab49 7d40 af00 2fc0 b8a2 03c0
00000220: efdd 1340 7b25 9fc0 c190 19bf ec65 e1be
00000230: 8cbc 29c0 ad61 fb3b 7392 0d3f a1a7 31c0
00000240: 6c08 1cc0 af1f d6bf 2665 12bf 92d0 14bd
00000250: 2dae 2940 1497 fabf 8793 03bf 5416 30bf
00000260: 5ddb c3bf dcc9 d3c0 4540 cebe a2e4 e6be
00000270: 1856 23c0 9061 82be b788 2c40 380b aa40
00000280: 5716 21c0 3778 fcbf 4573 fabe 46bf d23c
00000290: a60c bc3e bc75 b640 6a8d 19bf 900e 94bf
000002a0: df4c 563e bd14 09bf 45be 13bf cf32 30be
000002b0: 0876 a6c0 cef6 d9bd 3440 ac3f a372 1140
000002c0: c0d2 1cc0 1741 18bf 0c1f 96be 3703 413b
000002d0: e876 12bf 6a67 9fbf 2e68 bebe 3118 87be
000002e0: ad0d 2fc0 8154 b0be e32f 2fbf e7b8 22bf
000002f0: 5388 ffbe 4879 393d c60c 3d40 42a9 f040
00000300: 933e d8bf 19b8 ba3e 31f2 b13f 9364 ed3c
00000310: aca7 6bc0 6c4e b83f 3b20 9b40 a636 843f
00000320: d439 5c3f ef32 7abf 1321 17c0 8a03 36c0
00000330: d7a9 4440 570a de3b 0b6a bcbf 19a6 0dbf
00000340: b571 27be 72f1 c73f 5c75 d03e efdb 473d
00000350: e4bf cf3e f311 6d3f 173b 4cc0 f377 633f
00000360: f8e6 3a40 ccf9 fbbf e2f2 15c0 9f06 9fc0
00000370: e269 dbbe 7686 bcbe a387 18c0 ad26 91bf

layer2.bias f4 [14]
0.6037135 0.28256083 -0.041971695 -2.1865315 1.0807675 0.29917616 0.58136725 -0.27045956
-0.027517425 -0.6674024 -0.9853633 -0.72630507 0.03780959 0.2406227
00000000: f88c 1a3f d0ab 903e 83ea 2bbd 22f0 0bc0
00000010: 9756 8a3f 9e2d 993e 7cd4 143f ad79 8abe
00000020: 396c e1bc e2da 2abf c540 7cbf 21ef 39bf
00000030: 3bde 1a3d cc65 763e
