up2154598/source/comfitness_level/model/comfitness_model.pth (torch, 3352 bytes, 4 tensors)

layer1.weight f4 [16, 2]
1.3260248 -4.0538583 -1.6153145 2.3055842 -0.82080007 1.9129066 0.06372855 -5.5879455
7.851719 0.78622127 -0.8825206 -3.9308927 -3.3495486 0.22167273 -0.06435951 0.13336399
6.6335874 3.2622135 7.17444 4.8356986 -0.041580617 -0.21326938 -3.1005518 0.378014
-3.3515503 -5.2510424 7.960798 -0.21027152 -6.265032 0.99868155 -4.026786 -0.34062374
00000000: 2ebb a93f 35b9 81c0 a0c2 cebf b18e 1340
00000010: f41f 52bf 20da f43f 1d84 823d 73d0 b2c0
00000020: 4841 fb40 cc45 493f dfec 61bf bf93 7bc0
00000030: 015f 56c0 2dfe 623e ebce 83bd 9290 083e
00000040: 5946 d440 1bc8 5040 0395 e540 0bbe 9a40
00000050: 7050 2abd 4a63 5abe 716f 46c0 0d8b c13e
00000060: cd7f 56c0 8a08 a8c0 dbbe fe40 6b51 57be
00000070: 247b c8c0 98a9 7f3f 6edb 80c0 3c66 aebe

layer1.bias f4 [16]
3.9561617 5.0674863 2.0484712 -0.90819174 -6.0041203 0.5985941 1.1347992 -0.44599813
-3.1465755 1.6866561 -0.5445796 6.5186906 -1.3757355 0.22827353 1.8879867 1.4021015
00000000: c131 7d40 d928 a240 271a 0340 417f 68bf
00000010: c121 c0c0 773d 193f 1a41 913f de59 e4be
00000020: 7e61 49c0 59e4 d73f 9269 0bbf 1d99 d040
00000030: 1a18 b0bf 89c0 693e 8ca9 f13f 1078 b33f

layer2.weight f4 [14, 16]
-0.47862422 1.1298246 0.098139144 -1.4815311 -9.615695 -0.6179689 -0.8262825 -0.09731319
-1.2657987 0.88590854 -0.08189568 1.1466635 -0.7308256 2.8846328 -0.91492534 -1.0792148
-1.1393664 -0.9563881 -0.46047133 -2.6946864 1.6271298 -2.9172397 -1.0595174 0.19003662
1.9817435 1.6292174 -0.14376548 -1.3280127 -0.78998387 1.5511827 -0.44598317 -0.4458174
0.9930725 1.1911066 -1.0050973 0.28426167 -2.2238383 -2.100405 -0.98500735 -0.28128633
0.87960094 1.6579906 0.059123933 0.0064082043 -1.1316584 0.35689598 -1.1191925 -0.47935444
-5.092324 -2.6786313 -1.6040018 -3.298959 4.014 -1.760547 -0.76966244 -0.051621765
3.126953 2.0264409 -0.20640424 -5.3406863 -0.56137437 3.417903 -0.25724214 -0.4437738
0.3000635 4.200216 2.263791 0.91213465 -4.3443155 1.0542113 -3.2104166 0.09653701
-3.9175215 0.5885619 0.007273555 3.9182842 3.0524247 -2.6712909 -7.5377316 -4.7532387
-1.1595243 1.2279235 1.3078041 -2.4124174 -1.0699122 -2.1315465 1.2086804 0.043228894
-0.59840775 -3.1066282 0.207017 2.2662346 -5.3600435 -1.1161 6.229009 1.2200831
2.6836388 3.3706775 0.74693084 -2.2947729 -2.1519346 -2.1072927 -0.32339993 -0.026328513
-1.3559126 1.3062199 0.20022076 1.9156439 -1.5235014 -10.897725 -2.3667004 -0.89689076
1.4452958 -0.26137218 -0.59468096 0.8123489 -2.3914175 1.2242374 -1.0094534 -0.0023149883
-0.61134964 -3.7252862 0.119591534 0.19980735 -0.27696183 1.2359406 -1.3195033 -0.99352777
1.6682299 -3.6072776 -1.2726501 1.8732752 -9.167136 1.5405859 -0.98146856 -0.034822278
-3.7974231 1.2154443 -0.14712647 -1.6230001 -2.89849 2.290151 -0.88917255 -1.009888
0.5501612 -2.240296 -0.76535535 2.5611079 3.061637 1.5632243 -0.58989227 0.11565068
-0.10808191 -1.6077894 0.035001665 -3.735248 -6.215564 1.7063409 -0.65465 -0.51803493
0.5763567 -0.4299778 -1.7321458 0.85310566 2.165832 0.104821816 -0.6340763 -0.021506349
-7.4086843 -0.25899485 0.034962505 -2.2067947 0.8762925 3.634141 -0.6738531 -0.9251425
-1.0799636 -2.0622482 -0.54762596 0.31123412 4.633163 -1.0171176 -0.24287331 0.010921659
1.2734351 0.1501716 0.079541445 -3.4770837 -0.65410703 1.4501737 -0.42390308 -0.7016916
-0.10392685 0.43538028 -0.11648779 0.7152138 -0.4931744 1.5139871 1.1226722 -0.20629226
-0.73888385 -0.9913552 -0.086550504 1.660936 2.5829964 -1.8479104 2.0973854 2.7336128
3.221445 1.1688554 -0.034845777 0.7427918 -0.74470466 1.5655733 -1.1532122 -0.03048039
-0.9281949 -0.49969393 0.23611042 2.9039292 -1.549212 -8.470261 -3.584468 -1.0040196
00000000: 3c0e f5be 189e 903f 2dfd c83d d0a2 bdbf
00000010: e3d9 19c1 3633 1ebf 4087 53bf 234c c7bd
00000020: b105 a2bf e7ca 623f ecb8 a7bd dfc5 923f
00000030: 6317 3bbf d39d 3840 8c38 6abf b623 8abf
00000040: c2d6 91bf dad5 74bf e6c2 ebbe be75 2cc0
00000050: ca45 d03f 0eb4 3ac0 449e 87bf f698 423e
00000060: c5a9 fd3f 328a d03f 4237 13be 52fc a9bf
00000070: 623c 4abf 288d c63f e857 e4be 2e42 e4be
00000080: 003a 7e3f 2e76 983f 07a7 80bf bf8a 913e
00000090: 5e53 0ec0 096d 06c0 7129 7cbf c304 90be
000000a0: 872d 613f 0939 d43f f02b 723d eafb d13b
000000b0: 2fda 90bf 12bb b63e b341 8fbf f26d f5be
000000c0: 51f4 a2c0 b26e 2bc0 ee4f cdbf 2522 53c0
000000d0: b072 8040 9b59 e1bf 9908 45bf 5871 53bd
000000e0: ff1f 4840 35b1 0140 a25b 53be e7e6 aac0
000000f0: 3bb6 0fbf ecbe 5a40 3eb5 83be 5236 e3be
00000100: eca1 993e 2b68 8640 f4e1 1040 a881 693f
00000110: a204 8bc0 65f0 863f 7777 4dc0 32b5 c53d
00000120: acb8 7ac0 feab 163f 0057 ee3b 2bc5 7a40
00000130: ed5a 4340 6ef6 2ac0 1935 f1c0 881a 98c0
00000140: 4b6b 94bf 992c 9d3f 2066 a73f 0c65 1ac0
00000150: e2f2 88bf 426b 08c0 0ab6 9a3f c810 313d
00000160: 4031 19bf ffd2 46c0 44fc 533e fd09 1140
00000170: 7a85 abc0 5ddc 8ebf 0b54 c740 af2b 9c3f
00000180: bdc0 2b40 2eb9 5740 dc36 3f3f 8fdd 12c0
00000190: 4cb9 09c0 e2dd 06c0 ad94 a5be e5ae d7bc
000001a0: 8b8e adbf 3732 a73f ac06 4d3e d233 f53f
000001b0: 1802 c3bf 155d 2ec1 0578 17c0 a29a 65bf
000001c0: 74ff b83f 93d2 85be 033d 18bf 19f6 4f3f
000001d0: fc0c 19c0 d0b3 9c3f c535 81bf 0fb7 17bb
000001e0: 6981 1cbf 176b 6ec0 68ec f43d 4c9a 4c3e
000001f0: f1cd 8dbe 4d33 9e3f 7ce5 a8bf d657 7ebf
00000200: 8f88 d53f a3dd 66c0 33e6 a2bf 7bc7 ef3f
00000210: 97ac 12c1 eb31 c53f 8641 7bbf cea1 0ebd
00000220: fb08 73c0 ae93 9b3f 52a8 16be 78be cfbf
00000230: dc80 39c0 d591 1240 d0a0 63bf 0344 81bf
00000240: 5dd7 0c3f 0261 0fc0 54ee 43bf 31e9 2340
00000250: dcf1 4340 bc17 c83f 2e03 17bf 44da ec3d
00000260: 0c5a ddbd 0bcc cdbf e85d 0f3d 4e0e 6fc0
00000270: e6e5 c6c0 6169 da3f 2497 27bf f09d 04bf
00000280: 1d8c 133f 0d26 dcbe f4b6 ddbf 2265 5a3f
00000290: fe9c 0a40 d2ac d63d d352 22bf 152e b0bc
000002a0: f113 edc0 f99a 84be d834 0f3d 203c 0dc0
000002b0: b554 603f c495 6840 a381 2cbf 24d6 6cbf
000002c0: 3f3c 8abf e0fb 03c0 3731 0cbf 145a 9f3e
000002d0: df42 9440 e930 82bf c8b3 78be c2f0 323c
000002e0: ecff a23f 95c6 193e a0e6 a23d 8a88 5ec0
000002f0: 8f73 27bf 4b9f b93f d309 d9be 10a2 33bf
00000300: 9ad7 d4bd 2aea de3e 2791 eebd 4018 373f
00000310: 5b81 fcbe 54ca c13f b9b3 8f3f 473e 53be
00000320: 7e27 3dbf 74c9 7dbf 6441 b1bd 8d99 d43f
00000330: d04f 2540 5488 ecbf 903b 0640 83f3 2e40
00000340: 282c 4e40 0e9d 953f 72ba 0ebd 9a27 3e3f
00000350: f7a4 3ebf b564 c83f 759c 93bf 03b2 f9bc
00000360: 2e9e 6dbf e2d7 ffbe eec6 713e fad9 3940
00000370: 944c c6bf 3086 07c1 ec67 65c0 b783 80bf

layer2.bias f4 [14]
0.31301323 -0.35048765 0.10373945 -1.4689358 1.3075758 0.27777556 0.40663096 -0.41090098
-0.3794296 -0.97312117 -0.75365007 -0.6678709 0.06137501 0.5454776
00000000: 4543 a03e 1e73 b3be 5975 d43d 1706 bcbf
00000010: a55e a73f 9938 8e3e ef31 d03e 9d61 d2be
00000020: 9944 c2be 781e 79bf 36ef 40bf 96f9 2abf
00000030: 5d64 7b3d 6ca4 0b3f
