monitor_system/comfitness_level/comfitness_model.pth (torch, 4770 bytes, 6 tensors)

layer1.weight f4 [16, 2]
0.04131186 0.1327421 2.1395864 -0.23903555 -1.0865946 0.34289652 -0.5576703 1.0403739
-1.1722299 1.5701474 1.4638354 1.0260475 1.3349301 1.6351564 -1.0458267 -1.0090568
1.9680521 0.51915765 -1.0792768 -1.7426192 0.37401637 1.4737387 -1.2499803 0.038324084
-0.13756497 -1.5778162 2.1595035 -1.8601395 -1.1814228 0.40636396 -1.5038846 0.19165315
00000000: a036 293d 8ced 073e fcee 0840 bcc5 74be
00000010: 8815 8bbf 2290 af3e 7bc3 0ebf f92a 853f
00000020: a10b 96bf 97fa c83f f55e bb3f 8655 833f
00000030: fdde aa3f ce4c d13f a6dd 85bf c628 81bf
00000040: 22e9 fb3f 84e7 043f be25 8abf 250e dfbf
00000050: 137f bf3e 78a3 bc3f 5bff 9fbf b7f9 1c3d
00000060: d5dd 0cbe e2f5 c9bf 4e35 0a40 0d19 eebf
00000070: dd38 97bf f00e d03e 4a7f c0bf b940 443e

layer1.bias f4 [16]
-0.35552147 1.4373641 1.7848933 0.73765135 0.6639165 -0.76509553 0.9935773 1.1733247
-0.3673812 0.618878 1.3778558 1.9362335 1.8111964 0.77988464 1.9356549 1.315079
00000000: e906 b6be 8cfb b73f 6277 e43f b8d6 3c3f
00000010: 6ff6 293f 4ddd 43bf 155b 7e3f 812f 963f
00000020: 6319 bcbe ca6e 1e3f 945d b03f 80d6 f73f
00000030: 49d5 e73f 85a6 473f 8ac3 f73f 8254 a83f

layer2.weight f4 [16, 16]
0.13453516 0.48129857 -0.27470773 -0.4142059 -0.778582 -1.9377449 -1.4378883 0.7021387
-0.4632315 1.2258608 -1.2577941 0.06036122 0.7188318 0.78730756 -0.46780565 -0.46018845
0.20298505 1.2082767 -1.2347226 -0.3936433 -0.33383244 1.6208267 1.171161 -0.3470765
1.4077721 -0.33946848 0.54423094 -1.5335485 -0.4187862 0.96478724 -1.223161 -1.2557501
0.08890638 -0.8100464 0.76804906 0.67391175 0.2490902 -1.1827123 0.23558334 0.5504988
-1.1204988 1.2983369 0.708237 0.9456586 0.7822708 -0.9740856 0.8416678 0.9135579
-0.033668816 -0.45170087 0.48260847 0.4191109 0.4210681 -0.9981235 -0.40435088 0.6247698
-0.50055283 0.86381775 -0.0034567858 0.61289954 0.69296414 -0.3655137 0.6640848 0.6949471
0.18800834 -0.2237976 0.5615621 0.3736427 0.53376997 -0.7880555 0.8276163 0.41084495
-0.7693124 0.8668901 1.0877825 0.8277602 0.68504274 -0.3999589 0.66420406 0.5886357
-0.19470805 0.29503736 0.15240815 -0.355542 -1.3748524 1.4629564 1.0156448 0.5654054
0.74477905 0.5526571 1.2329483 0.17166018 0.51490384 -0.5142106 -0.14311455 -0.6583726
-0.20107678 0.9689052 1.372588 1.3708844 1.1973287 -1.7625368 0.3581791 -0.8937526
-1.412323 -1.5886275 0.8217168 1.4623777 -0.76761943 0.14589171 1.0155478 1.0085092
-0.20811582 -0.11017392 0.6589315 -0.88495415 -0.7696206 -1.4574621 0.06119281 0.7637739
-0.8734203 1.2400945 1.0930932 0.7477704 0.8074833 -0.3691471 0.8549857 0.5746864
-0.050791502 0.76581985 -0.44437668 0.31094983 -0.29628238 1.3419627 1.2124232 0.10488271
0.54490286 0.16378352 1.1681768 -0.5661189 -0.048166707 0.61122835 -0.27968237 -0.61720055
-0.04248348 0.93952745 0.31973004 -0.38079086 -0.8238825 -0.6001677 0.37229782 -0.2660385
-0.82046455 -0.5956009 0.78708744 0.7088005 0.8108317 1.2549442 0.44799963 -1.2760898
0.0641323 -0.14827323 -0.21906692 -0.23777679 -0.24471754 0.21160978 0.02974853 0.18362537
-0.12100273 0.053900838 0.040504992 -0.13179743 -0.1314424 0.01091516 -0.0072089136 -0.1835401
0.22009212 1.2476836 -0.5014743 0.697112 0.33037528 0.83731306 0.7639118 -0.005513522
0.7648622 0.20474742 0.33251804 -0.8094872 0.8929703 1.5070724 -0.3972239 -0.76285034
-0.17873025 -0.23718542 -0.02526179 -0.11096102 0.24360108 -0.14348534 -0.05257848 -0.14490998
-0.18695822 -0.18073165 -0.22690806 0.101798296 0.045366526 -0.19758388 -0.23064351 -0.077299446
0.039705843 0.07591489 0.43060967 0.95505446 0.7606215 1.2581761 0.54057056 -0.41790903
0.92951274 -1.0292227 0.5166168 0.12200947 -0.88997227 -0.13661106 0.4158273 0.5515908
0.21617591 -0.17666 -0.19290213 -0.113478564 0.115936376 0.015938073 -0.13379808 0.07175185
0.080674715 -0.28916216 -0.28459057 0.12347098 -0.054991886 -0.056241862 -0.35079923 -0.34442914
-0.20971599 -0.3875528 1.0746377 -0.56740075 -0.41473776 -0.5252597 -0.7993249 0.7607881
-0.39791712 0.8087843 -0.6780246 0.54589653 0.5584525 -0.55600137 0.60027313 0.68050075
00000000: 96c3 093e c46c f63e 7ea6 8cbe cc12 d4be
00000010: 2651 47bf 0608 f8bf b90c b8bf 5dbf 333f
00000020: ae2c edbe 02e9 9c3f 66ff a0bf 543d 773d
00000030: 5c05 383f fd8c 493f 3984 efbe d29d ebbe
00000040: 50db 4f3e d0a8 9a3f 640b 9ebf 9d8b c9be
00000050: 16ec aabe 4077 cf3f 9be8 953f 03b4 b1be
00000060: e031 b43f d0ce adbe b852 0b3f 514b c4bf
00000070: 256b d6be 4cfc 763f 8a90 9cbf 6bbc a0bf
00000080: 8c14 b63d 335f 4fbf dd9e 443f 7b85 2c3f
00000090: 8011 7f3e 1e63 97bf c23c 713e 7ded 0c3f
000000a0: 816c 8fbf e72f a63f 054f 353f af16 723f
000000b0: e642 483f ad5d 79bf 8a77 573f eede 693f
000000c0: 50e8 09bd 5645 e7be 7518 f73e b495 d63e
000000d0: 3d96 d73e 0685 7fbf 1407 cfbe eaf0 1f3f
000000e0: 3b24 00bf 2923 5d3f 3e8b 62bb fce6 1c3f
000000f0: 1966 313f 9d24 bbbe 7601 2a3f 0ee8 313f
00000100: 4285 403e 332b 65be 89c2 0f3f 194e bf3e
00000110: 26a5 083f 01be 49bf a9de 533f 455a d23e
00000120: a8f1 44bf 82ec 5d3f 753c 8b3f 18e8 533f
00000130: f65e 2f3f 6ac7 ccbe 4709 2a3f d4b0 163f
00000140: 8c61 47be 230f 973e e210 1c3e 9a09 b6be
00000150: 2afb afbf 2842 bb3f a600 823f 69be 103f
00000160: d7a9 3e3f f07a 0d3f 40d1 9d3f b0c7 2f3e
00000170: bdd0 033f 4ea3 03bf 9f8c 12be 1b8b 28bf
00000180: 12e7 4dbe 2c0a 783f f7b0 af3f 2479 af3f
00000190: 1142 993f ce9a e1bf 4063 b73e f8cc 64bf
000001a0: 00c7 b4bf 2558 cbbf 085c 523f 312f bb3f
000001b0: b582 44bf a364 153e 78fd 813f d416 813f
000001c0: 501c 55be dda2 e1bd bcaf 283f 5b8c 62bf
000001d0: db05 45bf 1e8e babf 50a5 7a3d b086 433f
000001e0: 7998 5fbf 6bbb 9e3f 7aea 8b3f e26d 3f3f
000001f0: 3ab7 4e3f d900 bdbe 58e0 5a3f a61e 133f
00000200: c00a 50bd c50c 443f 5785 e3be d134 9f3e
00000210: 53b2 97be 6fc5 ab3f af30 9b3f bfcc d63d
00000220: c17e 0b3f deb6 273e d186 953f 2bed 10bf
00000230: 744a 45bd 7679 1c3f 8732 8fbe db00 1ebf
00000240: 2803 2ebd df84 703f a8b3 a33e 05f7 c2be
00000250: f7e9 52bf 97a4 19bf d29d be3e 3336 88be
00000260: f709 52bf 4d79 18bf 907e 493f f373 353f
00000270: ab92 4f3f 03a2 a03f 3560 e53e e956 a3bf
00000280: cc57 833d f0d4 17be 1453 60be c27b 73be
00000290: 3c97 7abe 3cb0 583e 30b3 f33c 4a08 3c3e
000002a0: 48d0 f7bd 20c7 5c3d 90e8 253d e8f5 06be
000002b0: d698 06be 80d5 323c c038 ecbb f0f1 3bbe
000002c0: d45f 613e 19b4 9f3f 9f60 00bf ef75 323f
000002d0: f326 a93e 265a 563f b98f 433f c6aa b4bb
000002e0: 02ce 433f 4fa9 513e ce3f aa3e 8e3a 4fbf
000002f0: b499 643f c0e7 c03f ee60 cbbe 294a 43bf
00000300: 1005 37be bce0 72be d0f1 cebc 883f e3bd
00000310: 9072 793e d2ed 12be 885c 57bd 4863 14be
00000320: fa71 3fbe b811 39be 965a 68be a07b d03d
00000330: 40d2 393d 6e53 4abe d02d 6cbe 2c4f 9ebd
00000340: 98a2 223d 4479 9b3d df78 dc3e 737e 743f
00000350: 17b8 423f ea0b a13f d562 0a3f 2cf8 d5be
00000360: 8cf4 6d3f 92bd 83bf 0041 043f 1ae0 f93d
00000370: 39d5 63bf c5e3 0bbe 51e7 d43e 0e35 0d3f
00000380: 385d 5d3e 5ce6 34be 2388 45be 7367 e8bd
00000390: 0d70 ed3d 9090 823c 5d02 09be a2f2 923d
000003a0: c938 a53d 100d 94be dbb5 91be 5ade fc3d
000003b0: 2c3f 61bd de5d 66bd f59b b3be 0459 b0be
000003c0: cabf 56be 526d c6be ba8d 893f 2d41 11bf
000003d0: 8258 d4be 6b77 06bf 8fa0 4cbf 02c3 423f
000003e0: cbbb cbbe 7d0c 4f3f 0593 2dbf e0bf 0b3f
000003f0: bef6 0e3f 1b56 0ebf 80ab 193f 4c35 2e3f

layer2.bias f4 [16]
0.39023736 -0.3457552 0.5527803 0.30526233 0.6921571 0.15171759 0.8702907 0.46554095
0.20234731 1.0439585 -0.14555025 0.37441054 0.24020875 0.43855628 0.045439783 0.3063999
00000000: 31cd c73e d306 b1be 0283 0d3f 584b 9c3e
00000010: 3531 313f db5b 1b3e 5fcb 5e3f 625b ee3e
00000020: 2234 4f3e 6fa0 853f 200b 15be bdb2 bf3e
00000030: 48f9 753e 738a e03e 111f 3a3d 73e0 9c3e

output.weight f4 [12, 16]
-0.39025852 -0.26050073 -0.9017256 -0.87544304 0.7395879 0.45555115 -0.3533145 0.8533167
0.33660907 1.0698985 0.07218829 0.060085252 -0.21965128 0.13635375 0.096316636 -0.38973683
-1.0532942 0.3666998 -1.5163485 -0.39893952 -0.09900155 0.10900989 0.11011862 -1.6969848
0.28279328 0.871104 0.23882711 0.7242499 -0.2314035 0.23528586 -0.27364054 -0.6550552
-0.781111 1.1557596 -0.8912049 -0.41462517 -1.0073537 0.5066008 -1.3605341 -0.7635097
0.9106211 -0.7719052 -0.14115417 0.74189645 0.13861364 0.42650896 -0.07868227 -0.43126604
0.14453048 -1.7730608 -0.10268353 0.18642357 0.41033316 0.18410133 0.5754196 0.44183707
0.45460814 0.9208863 -0.23025125 -0.033845652 0.049303055 -0.068904094 0.36456907 -0.05422257
-1.0859276 -0.5071281 0.5863756 0.5065101 0.45198312 -1.2363219 0.74370104 0.19818744
-0.9720852 -1.1263719 0.105786294 -1.1802943 -0.06950429 0.5032429 0.076242186 -0.0634368
-0.5829322 -0.9200865 0.6809567 0.16328815 0.24136287 -0.78005636 0.83359313 0.06754413
-0.027856387 0.50595856 0.17865115 -0.9144967 0.18597203 0.093276285 -0.10092753 -1.0372022
0.8995137 -1.5771471 -1.7793127 -0.23380594 -0.7920149 -0.047945343 -1.2951391 -0.54324955
-0.05967831 0.8547914 -0.2223478 1.4628736 0.07419202 -0.6078341 -0.3639369 -0.0018309153
0.49907216 -0.07822392 -2.057156 -0.41939002 -0.17534773 0.11619621 -0.67645425 0.20456217
0.16091499 1.1433599 -0.23055092 0.5679734 -0.021122992 -0.7482097 0.030430505 -1.7225282
0.23040919 0.9243 -0.7492714 -0.5523931 -1.4052832 -0.4595177 -0.77349323 -1.3811781
0.35476777 0.08969226 0.22136232 1.2229592 -0.19910339 -1.1767479 -0.04204178 -0.6352834
1.3745303 0.37840778 -1.2364846 -0.6752738 -0.7636544 -0.6670238 -1.3232732 -0.4291961
-0.44953468 0.831237 -0.084403485 0.99041265 -0.117195696 -0.3846223 -0.25212178 -1.1007161
0.17848781 -0.37666786 1.3555945 0.57631916 0.33973876 0.36169818 -1.4468465 0.5007952
-0.47984412 -1.3460768 -0.056248575 -1.200121 0.19450778 -0.97256696 -0.0918264 0.85032773
0.19567451 -0.46257886 0.37190473 0.017899647 -0.0015028778 0.2267117 0.54132324 0.21150392
-1.5903804 0.9373867 0.028750509 -0.71514696 -0.18413147 -0.7453576 0.0151849305 0.9610628
00000000: f7cf c7be 5a60 85be 7dd7 66bf 091d 60bf
00000010: a255 3d3f 003e e93e a3e5 b4be f772 5a3f
00000020: 0658 ac3e 6ff2 883f 74d7 933d f41b 763d
00000030: 44ec 60be 51a0 0b3e a841 c53d 968b c7be
00000040: 58d2 86bf 14c0 bb3e b517 c2bf cd41 ccbe
00000050: 53c1 cabd 9440 df3d df85 e13d cc36 d9bf
00000060: 48ca 903e ac00 5f3f 188f 743e 7168 393f
00000070: 0af5 6cbe c7ee 703e 9d1a 8cbe b3b1 27bf
00000080: e4f6 47bf eeef 933f 0126 64bf c049 d4be
00000090: f7f0 80bf 97b0 013f fb25 aebf 5f75 43bf
000000a0: 771e 693f 949b 45bf b88a 10be edec 3d3f
000000b0: bcf0 0d3e 625f da3e 2c24 a1bd e7ce dcbe
000000c0: ccff 133e a8f3 e2bf be4b d2bd d2e5 3e3e
000000d0: 3017 d23e 0f85 3c3e b34e 133f 7838 e23e
000000e0: 66c2 e83e 34bf 6b3f fcc6 6bbe bda1 0abd
000000f0: 00f2 493d 971d 8dbd cca8 ba3e 7c18 5ebd
00000100: adff 8abf 26d3 01bf b61c 163f a5aa 013f
00000110: 556a e73e cc3f 9ebf 3163 3e3f a6f1 4a3e
00000120: 93da 78bf f42c 90bf 7ca6 d83d e213 97bf
00000130: 4458 8ebd 87d4 003f dd24 9c3d 27eb 81bd
00000140: 0b3b 15bf ca8a 6bbf 2e53 2e3f 0235 273e
00000150: d427 773e c6b1 47bf 5c66 553f 9454 8a3d
00000160: 1433 e4bc 8086 013f 54f0 363e 751c 6abf
00000170: 746f 3e3e a307 bf3d 18b3 cebd 0bc3 84bf
00000180: 8846 663f f5df c9bf 85c0 e3bf d36a 6fbe
00000190: 7dc1 4abf 5662 44bd 1ec7 a5bf 6712 0bbf
000001a0: 3e71 74bd 9cd3 5a3f 24af 63be 713f bb3f
000001b0: fcf1 973d 049b 1bbf f055 babe 53fb efba
000001c0: 6386 ff3e dd33 a0bd 72a8 03c0 4aba d6be
000001d0: 5b8e 33be 47f8 ed3d 1b2c 2dbf bf78 513e
000001e0: e6c6 243e 9e59 923f 8a15 6cbe b466 113f
000001f0: 200a adbc ac8a 3fbf 6549 f93c ce7b dcbf
00000200: 63f0 6b3e ed9e 6c3f 40d0 3fbf a269 0dbf
00000210: 52e0 b3bf e745 ebbe a703 46bf 72ca b0bf
00000220: 1fa4 b53e 93b0 b73d ceac 623e ed89 9c3f
00000230: c2e1 4bbe ad9f 96bf 0034 2cbd efa1 22bf
00000240: 9cf0 af3f aabe c13e 2145 9ebf bede 2cbf
00000250: db7e 43bf 12c2 2abf 0461 a9bf 97bf dbbe
00000260: 6929 e6be f3cb 543f bcdb acbd af8b 7d3f
00000270: 4c04 f0bd 37ed c4be 1b16 81be 44e4 8cbf
00000280: 82c5 363e 9cda c0be 1f84 ad3f a789 133f
00000290: 3df2 ad3e 8130 b93e 4432 b9bf 1d34 003f
000002a0: 21ae f5be 3f4c acbf e864 66bd 919d 99bf
000002b0: 0c2d 473e 26fa 78bf 7b0f bcbd 14af 593f
000002c0: e65e 483e 23d7 ecbe 4c6a be3e 48a2 923c
000002d0: 36fc c4ba 1d27 683e 2994 0a3f 7c94 583e
000002e0: 9691 cbbf 93f8 6f3f 3086 eb3c df13 37bf
000002f0: f68c 3cbe c1cf 3ebf 37ca 783c 3608 763f

output.bias f4 [12]
0.303658 -0.016278015 -0.08874269 0.15829614 0.13646317 0.061276503 -0.12467595 -0.18118061
-0.26410046 -0.16086581 0.07041883 0.06608926
00000000: 1079 9b3e 7959 85bc babe b5bd 6218 223e
00000010: 00bd 0b3e 12fd 7a3d 1b56 ffbd 6987 39be
00000020: 2d38 87be 02ba 24be bf37 903d ce59 873d
